Game 1 | Grid 10 X 10 | 20220324 | Record: 2 | Average Score: 0.0668103448275862 | Model: Linear_QNet(	  (Linear1): Linear(in_features=36, out_features=20, bias=True)	  (Linear2): Linear(in_features=20, out_features=12, bias=True)	  (Linear3): Linear(in_features=12, out_features=4, bias=True)	)
Game 2 | Grid 10 X 10 | Record: 3 | Average Score: 0.22844827586206898 | Games Played: 231 | Model: Linear_QNet(	  (Linear1): Linear(in_features=36, out_features=256, bias=True)	  (Linear2): Linear(in_features=256, out_features=64, bias=True)	  (Linear3): Linear(in_features=64, out_features=4, bias=True)	)|
Game 3 | Grid 10 X 10 | Record: 0 | Average Score: 0 | Games Played: 0 | Model: Linear_QNet(	  (Linear1): Linear(in_features=15, out_features=20, bias=True)	  (Linear2): Linear(in_features=20, out_features=12, bias=True)	  (Linear3): Linear(in_features=12, out_features=4, bias=True)	)|
Game 4 | Grid 10 X 10 | Record: 1 | Average Score: 0.07714285714285714 | Games Played: 350 | Model: Linear_QNet(	  (Linear1): Linear(in_features=15, out_features=20, bias=True)	  (Linear2): Linear(in_features=20, out_features=12, bias=True)	  (Linear3): Linear(in_features=12, out_features=4, bias=True)	)|
Game 5 | Grid 10 X 10 | Record: 2 | Average Score: 0.12605042016806722 | Games Played: 119 | Model: Linear_QNet(	  (Linear1): Linear(in_features=15, out_features=20, bias=True)	  (Linear2): Linear(in_features=20, out_features=12, bias=True)	  (Linear3): Linear(in_features=12, out_features=4, bias=True)	)|
Game 6 | Grid 10 X 10 | Record: 27 | Average Score: 4.66 | Games Played: 999 | Model: Linear_QNet(	  (Linear1): Linear(in_features=15, out_features=256, bias=True)	  (Linear2): Linear(in_features=256, out_features=4, bias=True)	)|
Game 7 | Grid 10 X 10 | Record: 14 | Average Score: 2.2807625649913343 | Games Played: 576 | Learning Rate: 0.001 | Discount Rate: 0.95 | Epsilon Decay | 0.999 | Hidden Layer 1: 20 | Hidden Layer 2: 0
Game 8 | Grid 10 X 10 | Record: 3 | Average Score: 0.11756756756756757 | Games Played: 739 | Learning Rate: 0.001 | Discount Rate: 0.95 | Epsilon Decay | 0.9995 | Hidden Layer 1: 20 | Hidden Layer 2: 12 |
Game 9 | Grid 10 X 10 | Record: 2 | Average Score: 0.08385093167701864 | Games Played: 322 | Learning Rate: 0.001 | Discount Rate: 0.95 | Epsilon Decay | 0.9991 | Hidden Layer 1: 256 | Hidden Layer 2: 0 | NN Model: Linear_QNet(	  (Linear1): Linear(in_features=11, out_features=256, bias=True)	  (Linear2): Linear(in_features=256, out_features=3, bias=True)	) |
Game 10 | Grid 10 X 10 | Record: 2 | Average Score: 0.09569377990430622 | Games Played: 209 | Learning Rate: 0.001 | Discount Rate: 0.95 | Epsilon Decay | 0.9991 | Hidden Layer 1: 256 | Hidden Layer 2: 0 | NN Model: Linear_QNet(	  (Linear1): Linear(in_features=11, out_features=256, bias=True)	  (Linear2): Linear(in_features=256, out_features=3, bias=True)	) |
Game 11 | Grid 10 X 10 | Record: 3 | Average Score: 0.11278195488721804 | Games Played: 132 | Learning Rate: 0.001 | Discount Rate: 0.95 | Epsilon Decay | 0.9991 | Hidden Layer 1: 256 | Hidden Layer 2: 0 | NN Model: Linear_QNet(	  (Linear1): Linear(in_features=11, out_features=256, bias=True)	  (Linear2): Linear(in_features=256, out_features=3, bias=True)	) |
Game 12 | Grid 10 X 10 | Record: 3 | Average Score: 0.19631901840490798 | Games Played: 162 | Learning Rate: 0.001 | Discount Rate: 0.95 | Epsilon Decay | 0.9991 | Hidden Layer 1: 256 | Hidden Layer 2: 0 | NN Model: Linear_QNet(	  (Linear1): Linear(in_features=32, out_features=256, bias=True)	  (Linear2): Linear(in_features=256, out_features=3, bias=True)	) |
Game 13 | Grid 8 X 8 | Record: 4 | Average Score: 0.20275590551181102 | Games Played: 1016 | Learning Rate: 0.001 | Discount Rate: 0.95 | Epsilon Decay | 0.9999 | Hidden Layer 1: 256 | Hidden Layer 2: 0 | NN Model: Linear_QNet(	  (Linear1): Linear(in_features=32, out_features=256, bias=True)	  (Linear2): Linear(in_features=256, out_features=3, bias=True)	) |
Game 14 | Grid 8 X 8 | Record: 2 | Average Score: 0.12206572769953052 | Games Played: 425 | Learning Rate: 0.001 | Discount Rate: 0.95 | Epsilon Decay | 0.9999 | Hidden Layer 1: 256 | Hidden Layer 2: 0 | NN Model: Linear_QNet(	  (Linear1): Linear(in_features=35, out_features=256, bias=True)	  (Linear2): Linear(in_features=256, out_features=3, bias=True)	) |
Game 15 | Grid 8 X 8 | Record: 4 | Average Score: 0.09270216962524655 | Games Played: 507 | Learning Rate: 0.001 | Discount Rate: 0.95 | Epsilon Decay | 0.9995 | Hidden Layer 1: 20 | Hidden Layer 2: 12 | NN Model: Linear_QNet(	  (Linear1): Linear(in_features=35, out_features=20, bias=True)	  (Linear2): Linear(in_features=20, out_features=12, bias=True)	  (Linear3): Linear(in_features=12, out_features=3, bias=True)	) |
Game 16 | Grid 8 X 8 | Record: 32 | Average Score: 7.0675 | Games Played: 1999 | Learning Rate: 0.001 | Discount Rate: 0.95 | Epsilon Decay | 0.9995 | Hidden Layer 1: 256 | Hidden Layer 2: 0 | NN Model: Linear_QNet(	  (Linear1): Linear(in_features=35, out_features=256, bias=True)	  (Linear2): Linear(in_features=256, out_features=3, bias=True)	) |
Game 17 | Grid 8 X 8 | Record: 4 | Average Score: 0.23834196891191708 | Games Played: 1543 | Learning Rate: 0.001 | Discount Rate: 0.95 | Epsilon Decay | 0.9999 | Batch Size: 2000 | Hidden Layer 1: 256 | Hidden Layer 2: 0 | NN Model: Linear_QNet(	  (Linear1): Linear(in_features=39, out_features=256, bias=True)	  (Linear2): Linear(in_features=256, out_features=3, bias=True)	) |
Game 18 | Grid 8 X 8 | Record: 5 | Average Score: 0.23154246100519932 | Games Played: 2885 | Learning Rate: 0.001 | Discount Rate: 0.95 | Epsilon Decay: 0.9999 | Batch Size: 2000 | Hidden Layer 1: 256 | Hidden Layer 2: 0 | NN Model: Linear_QNet(	  (Linear1): Linear(in_features=39, out_features=256, bias=True)	  (Linear2): Linear(in_features=256, out_features=3, bias=True)	) |
Game 19 | Grid 8 X 8 | Record: 3 | Average Score: 0.35584562996594776 | Games Played: 1762 | Learning Rate: 0.001 | Discount Rate: 0.95 | Epsilon Decay: 0.9995 | Current Epsilon: 0 | Batch Size: 3000 | Hidden Layer 1: 256 | Hidden Layer 2: 0 | NN Model: Linear_QNet(	  (Linear1): Linear(in_features=32, out_features=256, bias=True)	  (Linear2): Linear(in_features=256, out_features=3, bias=True)	) |
Game 20 | Grid 8 X 8 | Record: 1 | Average Score: 0.08743169398907104 | Games Played: 549 | Learning Rate: 0.001 | Discount Rate: 0.95 | Epsilon Decay: 0.9995 | Current Epsilon: 0.0 | Batch Size: 3000 | Hidden Layer 1: 64 | Hidden Layer 2: 8 | NN Model: Linear_QNet(	  (Linear1): Linear(in_features=36, out_features=64, bias=True)	  (Linear2): Linear(in_features=64, out_features=8, bias=True)	  (Linear3): Linear(in_features=8, out_features=3, bias=True)	) |
Game 21 | Grid 8 X 8 | Record: 4 | Average Score: 0.2595573440643863 | Games Played: 2981 | Learning Rate: 0.001 | Discount Rate: 0.95 | Epsilon Decay: 0.9995 | Current Epsilon: 0.0 | Batch Size: 3000 | Hidden Layer 1: 32 | Hidden Layer 2: 12 | NN Model: Linear_QNet(	  (Linear1): Linear(in_features=36, out_features=32, bias=True)	  (Linear2): Linear(in_features=32, out_features=12, bias=True)	  (Linear3): Linear(in_features=12, out_features=3, bias=True)	) |
Game 22 | Grid 8 X 8 | Record: 3 | Average Score: 0.06265399507215769 | Games Played: 2841 | Learning Rate: 0.001 | Discount Rate: 0.95 | Epsilon Decay: 0.9995 | Current Epsilon: 0.0 | Batch Size: 3000 | Hidden Layer 1: 20 | Hidden Layer 2: 12 | NN Model: Linear_QNet(	  (Linear1): Linear(in_features=28, out_features=20, bias=True)	  (Linear2): Linear(in_features=20, out_features=12, bias=True)	  (Linear3): Linear(in_features=12, out_features=3, bias=True)	) |
Game 23 | Grid 8 X 8 | Record: 3 | Average Score: 0.15692503176620076 | Games Played: 1574 | Learning Rate: 0.001 | Discount Rate: 0.95 | Epsilon Decay: 0.9995 | Current Epsilon: 0.0 | Batch Size: 3000 | Hidden Layer 1: 128 | Hidden Layer 2: 12 | NN Model: Linear_QNet(	  (Linear1): Linear(in_features=28, out_features=128, bias=True)	  (Linear2): Linear(in_features=128, out_features=12, bias=True)	  (Linear3): Linear(in_features=12, out_features=3, bias=True)	) |
Game 24 | Grid 6 X 6 | Record: 9 | Average Score: 0.4982231698649609 | Games Played: 4221 | Learning Rate: 0.001 | Discount Rate: 0.95 | Epsilon Decay: 0.9995 | Current Epsilon: 0.0 | Batch Size: 3000 | Hidden Layer 1: 512 | Hidden Layer 2: 32 | NN Model: Linear_QNet(	  (Linear1): Linear(in_features=39, out_features=512, bias=True)	  (Linear2): Linear(in_features=512, out_features=32, bias=True)	  (Linear3): Linear(in_features=32, out_features=3, bias=True)	) |
Game 25 | Grid 6 X 6 | Record: 3 | Average Score: 0.19138755980861244 | Games Played: 418 | Learning Rate: 0.001 | Discount Rate: 0.95 | Epsilon Decay: 0.9995 | Current Epsilon: 0.10909306707793455 | Batch Size: 3000 | Hidden Layer 1: 512 | Hidden Layer 2: 32 | NN Model: Linear_QNet(	  (Linear1): Linear(in_features=35, out_features=512, bias=True)	  (Linear2): Linear(in_features=512, out_features=32, bias=True)	  (Linear3): Linear(in_features=32, out_features=3, bias=True)	) |
Game 26 | Grid 6 X 6 | Record: 10 | Average Score: 0.41810344827586204 | Games Played: 1623 | Learning Rate: 0.001 | Discount Rate: 0.95 | Epsilon Decay: 0.9995 | Current Epsilon: 0.0 | Batch Size: 3000 | Hidden Layer 1: 256 | Hidden Layer 2: 0 | NN Model: Linear_QNet(	  (Linear1): Linear(in_features=35, out_features=256, bias=True)	  (Linear2): Linear(in_features=256, out_features=3, bias=True)	) |
